checkpoint_critic.pth (torch_old, 491058 bytes, 5 tensors)

fcs1.weight f4 [400, 3]
00000000: ade7 c0be 48b9 093d c496 103c 4f88 dfbd
00000010: 3996 733c 05a8 f5bc ac38 9cba 47b4 95bd
00000020: 0efd 3a3d 30d0 1f3d 72ac d3bd 9ff5 2fbd
00000030: 68f3 1abe e4c8 593e c4ad 8b3d bf14 35bd
00000040: 487c 3ebd b42b 3d3c 81a3 3fbe 8ea5 2abd
00000050: 6dc8 84bd 24fa 6fbd 68f4 48bd e994 7cbc
00000060: d520 72bd 4870 973b f585 94bd b845 b7bd
00000070: d244 433c 52ff 17bd d5e9 2abe e075 e4bd
00000080: 9a45 0abe ebfd 15be 54d8 243d f3b4 cb3d
00000090: 89d1 89be 8a19 a43d 8fa0 713c 5339 143d
000000a0: 3439 7a3c b0b0 0ebb d5df a0be 381b efba
000000b0: 86e0 c13a ec15 7abd 9de4 273d 5bb3 a33c
000000c0: 68ce 253c f882 31bc 300d 01bd ca94 b3bc
000000d0: 0826 273c e8f4 d2bb da48 f839 47a9 b3bd
000000e0: 4355 4dbc 6051 baba 2c74 07bc e03f 0abc
000000f0: 472b 0d3d aaaf f2bc d012 a2bc efa0 0d3d
00000100: 8cc4 753c 1235 b33c a499 0b3c 26ec f9bd
00000110: 2653 f7bc d854 d73b 095d 003d 53ce edbc
00000120: 8568 433d 52b4 13be ffaa 2bbd b83e 61be
00000130: d21b 97be f8f0 b2bd 7d2a b8bd f069 2bba
00000140: fa0a 9f3d afe0 a4be 4036 ca3d a4a7 b73c
00000150: bea4 963c 9a6a bc3c 4847 49bd 3a69 febc
00000160: 2808 21bd 4e90 0cbd 0026 9ebc 22b4 da3c
00000170: d992 103d 0bbe cfbd df88 bc3c e590 75bc
00000180: 4d48 083d 8396 d6bc 0513 30bd 8e33 0fbe
00000190: 894e 953c 7e55 cf3c 1d47 253d 4559 0cbd
000001a0: e8c4 833b 3d93 8cbd 163b 853d 09eb 6fbc
000001b0: 01b1 62be 4eb0 04be ef34 8ebd e9a9 fcbd
000001c0: dbb5 933d 101c 773b 1d7e cd3c 56f8 dcbc
000001d0: 30c0 c9bc a73b 05be 0b5b c83c 3236 97bb
000001e0: ce53 33be 72b1 783e febe 1dbd 3b6a 26bd
000001f0: 8957 1f3d c26a bb3c 8bb2 c4bd 65f9 7f3e
00000200: 0c4f 9cbc d953 c6bd 715f 113d 7cbd 633c
00000210: 2ea7 b0bd aa6b b2bb cf6f a73d 2592 2ebd
00000220: a0e5 31bd 1a36 aa3c de77 d5bd 79ca 1f3d
00000230: ceae c6bc 9322 82be b9fd 873d 1378 393c
00000240: eeb1 14be b8b8 40be c7be 35bd 779a 633c
00000250: 074c aebd 21a5 973c 08c5 ccbd 21c6 8d3d
00000260: fc7f e63d ca13 d53c 98b6 f8bb 8770 e0bc
00000270: 933e 19bd 667a c23c f60f 883c aa7c c6bd
00000280: 376c cabc 317a 0abd 9f68 47bd a4a4 dc3c
00000290: 7f48 0ebd ad2f 5c3d e33a 2c3c 1139 14bd
000002a0: d319 27be ded3 993e f983 03bd c8d4 1dbe
000002b0: 91da 373d 5f74 173d 02a0 06be 319a d93b
000002c0: 3d60 b2bd d4c6 19be 343f 68bd 0311 73bd
000002d0: 84fc 703c dfd1 0c3d 6048 213c 40ef 073c
000002e0: 8294 f13c 3a86 08bd 57c7 e3bd 3e80 133e
000002f0: 9cd5 0e3e 0034 e23b b8c7 1ebd 3a17 a4bc
00000300: b4f1 80bc e769 32bd 6e2c 27bd 84dc 77be
00000310: 966a ea3d 45b3 963d 7b84 9fbb 8ee1 be3b
00000320: 76c6 003d a1a2 13be 5a0f 083e d343 64bb
00000330: 51bb 063d ab33 183d 7475 0cbd 12a8 293e
00000340: fed6 89bd 1935 c4bd 80e5 6b3a 2291 37bd
00000350: 900f 86bb 2501 51be 6a12 073c eff9 73bd
00000360: dba4 19be 1765 3a3d c144 21bd 64da 053b
00000370: 9f17 883b 2876 5abb acbc 51bc 50d2 a93b
00000380: a4e6 00be ef54 443d 9e71 ba3c b23d 20bd
00000390: 3b9c 25bd 8dba 1dbd 0870 04bc 2138 1c3d
000003a0: 949a 0a3c 86b6 ae3c 6294 75be c24d 9e3d
000003b0: 92f9 ae3d 5cfc 503c e141 143d e807 d2bb
000003c0: 0ebe 27be bf32 593d fbfc 45bc 7d9d 453d
000003d0: 1c25 d9bd dac4 43bd e34d 883d 42f1 1bbc
000003e0: 88e6 77bb 447a 773c 7835 0fbe 3b1d bebd
000003f0: 3383 afbd 5899 b23d 7442 e93c b9f3 2e3d
-0.37676755 0.033623964 0.008825008 -0.10914671 0.014867359 -0.029987345 -0.0011918745 -0.07309776
0.045651488 0.039016902 -0.10335626 -0.042958852 -0.15131915 0.2126804 0.068202525 -0.04420924
-0.046505243 0.011546064 -0.18714716 -0.04166179 -0.06483541 -0.058588162 -0.04906121 -0.015416362
-0.059113342 0.0046215393 -0.07252113 -0.08948845 0.0119182635 -0.037108727 -0.16690762 -0.11155295
-0.13503113 -0.14647643 0.04024537 0.09946623 -0.26917675 0.08012684 0.014747753 0.03618748
0.015272427 -0.0021772794 -0.3142077 -0.0018242365 0.0014791645 -0.061056063 0.040989507 0.019982984
0.010120012 -0.010834448 -0.031506717 -0.021921534 0.010201938 -0.0064378865 0.00047356525 -0.087725215
-0.012532535 -0.0014214925 -0.008267444 -0.008438081 0.0344651 -0.029624779 -0.019784361 0.034577306
0.015000474 0.021875892 0.0085205175 -0.12203245 -0.030191015 0.0065713935 0.031338725 -0.029029047
0.0477071 -0.14424255 -0.04191112 -0.21996582 -0.29513413 -0.087373674 -0.08992479 -0.0006538918
0.077657655 -0.3220267 0.098736286 0.022418804 0.018389102 0.02300005 -0.049140245 -0.031056035
-0.03931442 -0.034317307 -0.01930523 0.026697222 0.035296295 -0.1014367 0.023014484 -0.014988159
0.033272076 -0.026194816 -0.04298689 -0.1398451 0.018225925 0.02530932 0.040351022 -0.03426482
0.004021276 -0.06864021 0.065054104 -0.014643439 -0.22137834 -0.1295788 -0.0694369 -0.12337095
0.072124206 0.0037705936 0.02508455 -0.026973885 -0.024627775 -0.13011037 0.024457475 -0.004614615
-0.17512438 0.2428644 -0.038512222 -0.040628653 0.03890184 0.022878055 -0.09604367 0.2499748
-0.019080661 -0.096839614 0.03549141 0.013900157 -0.08625637 -0.0054449635 0.08175623 -0.042619843
-0.043431878 0.02077775 -0.104232535 0.039011452 -0.024253275 -0.25417003 0.06640191 0.011320132
-0.14521 -0.18820465 -0.044371393 0.013891808 -0.08510595 0.018511357 -0.09998518 0.06922556
0.1125488 0.026010413 -0.0075901262 -0.027397407 -0.03741319 0.023740005 0.016609173 -0.096917465
-0.024709804 -0.033807937 -0.04868376 0.026933976 -0.034737106 0.053756405 0.010512087 -0.036187235
-0.16318445 0.30044454 -0.03210828 -0.15413201 0.044886176 0.036976214 -0.13146976 0.0066406955
-0.08709762 -0.15017253 -0.0567009 -0.059342396 0.014708642 0.034379836 0.009843916 0.008296788
0.02948976 -0.033331133 -0.111220054 0.1440439 0.13948673 0.0069031715 -0.038764685 -0.020030607
-0.015740253 -0.043558028 -0.040813856 -0.24205214 0.11446111 0.07358412 -0.004868088 0.005825228
0.031439267 -0.14417507 0.13287106 -0.0034830465 0.032893483 0.03715865 -0.0342917 0.1656802
-0.0673046 -0.0958044 0.0008998737 -0.044816144 -0.0040912107 -0.20410593 0.008244136 -0.059564527
-0.15004294 0.045506563 -0.03937221 0.002042436 0.0041532065 -0.0033334587 -0.012801331 0.005182542
-0.12587982 0.04793256 0.022759255 -0.039121337 -0.040432196 -0.038507987 -0.008083351 0.038139466
0.008459706 0.021327268 -0.23982385 0.07729675 0.085436955 0.01275548 0.03619564 -0.006409634
-0.16381094 0.05302691 -0.012084241 0.048245896 -0.10602781 -0.047795154 0.06655481 -0.00951797
-0.0037826616 0.015104834 -0.1398524 -0.09282919 -0.08569946 0.08720654 0.02847407 0.0427129

fcs1.bias f4 [400]
00000000: e636 a1be 9f12 123f b2ad e53c 3c8e 003f
00000010: 6b9c da3d eaad e8be b997 e73d ed76 b63e
00000020: 034f 953e 712e cd3e 6a30 f1bd 7778 1f3e
00000030: 1065 e7bd b66f 5dbe 8864 8fbe 85db 0c3f
00000040: 2a8c 9dbe 90b6 a4bd 51bb 003f c259 a3be
00000050: 38fa ffbe 70d1 00bf efaf 063f 24d7 84be
00000060: 0732 d43e e885 6cbe e064 da3d 9a47 02be
00000070: d12d 02bf aaf3 f8be 6d35 dbbe 71b7 5e3e
00000080: 3e6a eebe 7085 f13e a55b c9be dfac 4f3e
00000090: 5cdb 873d 6c13 e43e e4e7 c5be 7f99 963e
000000a0: 585d 0d3e f292 98be d0a2 e63d 5b51 913e
000000b0: 62d0 ea3d 2eb5 d3be b049 023f 0b65 d2bd
000000c0: e311 a7be b634 033f 8280 6d3e bc24 62be
000000d0: 31cd e1be fbe6 043f 5ba7 923e f1c4 8abe
000000e0: 8999 163e b753 bc3e 8710 c83d 4d64 ee3d
000000f0: 8c60 e7be 3778 0dbf 36f0 20bd 9d45 d3be
00000100: 8675 06bf 60f9 0d3d a716 a0be 43ab a73e
00000110: c639 f2be 1952 b9be 0c03 d4be bc4c d73d
00000120: 0cbd 973e e066 a33e bdef 153e e242 0dbf
00000130: d398 a2be 2a2a 46be a5a4 a63d 7683 24be
00000140: 4b24 d73e f055 db3e 7cc1 64be c173 98be
00000150: eee5 c73e a41b b4be 66a5 e8bb 1416 f5be
00000160: d509 f93e 3444 4d3e 6d81 cabe 5b8f 21bc
00000170: 0fdc d33e 66cb ba3d e1f3 dd3e 4827 b6be
00000180: a897 0a3e c4c3 98be defb 96be b3c5 563e
00000190: 1e6b cbbe 0f93 a3be a151 9d3e acbe b5be
000001a0: e11f 92be 4917 cc3e 54b7 003f 64f4 f0be
000001b0: 984f d73e ead7 dcbe 0caa 9d3d 85bf a4be
000001c0: f6d0 01bf 2efa 87be 9275 9c3d bcbb 50be
000001d0: 444d 873d 6d89 d03d 334e 0b3f 486b 3f3e
000001e0: 3b2f 0ebf 6f65 c73e 56a5 93be 50ab f43e
000001f0: ce3c d9be 8e40 04bf 5b84 d73e 3aa0 193e
00000200: f3ac 0dbf 6b07 c33d da7d a63e 4f5d e53d
00000210: 1007 aa3e d7f4 d53d 96fd d53e a04f bbbe
00000220: a0af 073f 344f fcbe bd59 f13d bd8e 813e
00000230: 9a2e 0c3f 9a84 4dbe 23e6 063e 6324 a7be
00000240: 65de d63d 82e8 04bf 8780 713e 3806 0dbf
00000250: 5e74 a8be fe17 49be 55ac ce3d df2e ecbe
00000260: 9eeb 883e f4aa 4bbe ba52 91be 462d 023f
00000270: f6ea c63e 46c0 eabe 604a 85be cebf 2ebe
00000280: 0023 29be 714c 293e dd21 2cbe 5b72 093f
00000290: 8f1a 113f b9ef 923d 61f0 7e3c 7f25 303d
000002a0: 428a d0bd febd 943e 319e 88be 6cb3 053f
000002b0: c7e5 42be ef78 aebe 355c dabe 4cb6 5ebe
000002c0: e4f1 e63e a097 00bf 94e3 71be 66d6 bfbe
000002d0: 02a8 013f 883b 023f 1b18 fe3e 71e1 0fbd
000002e0: ce92 86be 5a58 d23d ff0e 813d abd1 04bf
000002f0: f285 e0be 7493 eabe 781f 953e 69f3 ca3d
00000300: 5af8 f23d e78b 8ebd 56e1 7a3e af89 0c3f
00000310: 936f b13e ad85 c0be 7477 4fbe 66b3 e0be
00000320: ae49 f5be 90fd 033f fb9b 0fbf 0327 643e
00000330: e9fc da3d b6ae ae3e d258 b3bd 40eb adbe
00000340: 6b3a 0d3e 165e 84bd 9891 f6be 6575 10be
00000350: 4544 aebe f99f 983d e05f fe3e c470 db3e
00000360: b44c 62be 11ad b93e 1c4e 8c3e 00fd cabe
00000370: aa79 1fbe 4795 c33e e6cc 083e 4386 103e
00000380: ce19 a23e 5a0c a63e b23a 0e3f b71c 613e
00000390: 3c8f 90be 0d37 6cbe 3593 b83e 2694 babe
000003a0: 9cb1 9abe a7c3 cfbe f4d9 0abf 318c b9be
000003b0: 768d 0fbf ce04 933e 5404 003f 8d71 113e
000003c0: 6387 00bf ae0a 033f 749c 54be 73bb 093e
000003d0: fa38 15be 5c9d 883e 5f0a 653d 46db 4ebe
000003e0: 6145 963d 67c6 0c3f 2ed9 7f3e a836 583e
000003f0: 24c0 773e 9ae0 023e 4d30 d23e 3983 c1be
-0.31487197 0.57059664 0.028036926 0.5021703 0.106743656 -0.45445186 0.11308236 0.35637608
0.29161844 0.40074494 -0.117768124 0.15573297 -0.11298573 -0.21624646 -0.28006387 0.5502246
-0.30771 -0.080426335 0.5028582 -0.31904417 -0.4999559 -0.50319576 0.52612203 -0.2594539
0.41444418 -0.23097956 0.10663772 -0.12722626 -0.5085116 -0.486234 -0.42814198 0.21749665
-0.4656543 0.47172117 -0.39327732 0.20280789 0.06633636 0.44546068 -0.3865348 0.29413983
0.13805139 -0.2979961 0.11261523 0.28382382 0.11465527 -0.41349167 0.5089369 -0.10273179
-0.32630834 0.51252306 0.23193553 -0.22084326 -0.4410186 0.5191495 0.28643307 -0.2710338
0.14707007 0.3678262 0.09768777 0.116402246 -0.45190847 -0.5526156 -0.039291583 -0.41264048
-0.52523077 0.03466165 -0.31267282 0.3274785 -0.47309703 -0.36195448 -0.41408575 0.10512683
0.2963642 0.31914425 0.14642234 -0.5518018 -0.3175722 -0.19352022 0.08136872 -0.16065773
0.42019877 0.42839003 -0.22339433 -0.29775813 0.3904261 -0.35177338 -0.007099795 -0.47868407
0.48640314 0.20045549 -0.3955187 -0.009860839 0.4137883 0.091208264 0.43350127 -0.35576844
0.13534415 -0.29836857 -0.29489034 0.20973854 -0.3973016 -0.31948134 0.3072634 -0.35497034
-0.28539947 0.39861515 0.50279737 -0.47061455 0.42052913 -0.4313348 0.076984495 -0.32177368
-0.50709474 -0.2655806 0.07639612 -0.20384115 0.06606534 0.10182462 0.544162 0.18693268
-0.5554082 0.38944575 -0.2883708 0.4778695 -0.42429203 -0.51661 0.42093167 0.15002528
-0.55342025 0.09522899 0.32517892 0.11199438 0.33208513 0.1044709 0.41795033 -0.36584187
0.5300236 -0.49279177 0.11784694 0.25304213 0.5475861 -0.20070115 0.13173728 -0.32644948
0.10491637 -0.5191728 0.23584186 -0.55087614 -0.3290128 -0.19638059 0.100914635 -0.4612951
0.26742262 -0.19889432 -0.28383428 0.5085033 0.38851136 -0.45849818 -0.26033306 -0.17065355
-0.16517258 0.16533066 -0.16809793 0.5369012 0.5668115 0.0717463 0.0155602405 0.04300451
-0.101826206 0.29051203 -0.2668319 0.522269 -0.19032966 -0.3407664 -0.42648473 -0.21749228
0.45106423 -0.5023136 -0.2362197 -0.3746826 0.50646985 0.5087209 0.49627766 -0.035127107
-0.26283878 0.10270758 0.063016884 -0.5188243 -0.43852192 -0.45815623 0.2912557 0.09909708
0.118637756 -0.06960278 0.24500021 0.5489759 0.34655437 -0.37601987 -0.20260412 -0.4388687
-0.47907776 0.5155878 -0.5609738 0.22280507 0.1069277 0.3411767 -0.087571755 -0.33968544
0.13791816 -0.06463258 -0.48157954 -0.14107282 -0.3403646 0.07452387 0.49682522 0.4285947
-0.22099572 0.36264852 0.27403343 -0.3964615 -0.15573755 0.38199827 0.13359413 0.14113717
0.31660312 0.32431298 0.5555831 0.2198361 -0.2823428 -0.23067875 0.3604981 -0.36441153
-0.3021363 -0.40578958 -0.5423882 -0.3623977 -0.5607523 0.28714603 0.50006604 0.14203472
-0.50206584 0.5118817 -0.20762807 0.13450412 -0.14572516 0.26682556 0.055918094 -0.20200834
0.07337452 0.5499024 0.24985191 0.211146 0.2419439 0.12780991 0.41052476 -0.37795427

fc2.weight f4 [300, 401]
00000000: 523a 033f 90e9 273d c01e 513d a178 9439
00000010: e03c c23d 201f 6b3c c4ce 933c 6385 6f3d
00000020: 398c 163d d394 693d 7f65 cd3d 1e25 b83d
00000030: 7c08 213e 54c2 0cbc ded9 2e3f be98 f13c
00000040: 28e5 dd3c 0039 0cbd ec8a 1e3d 44ac 3cbd
00000050: 79f4 e3bc ac4a 043d 9f28 94bb afab 5dbd
00000060: 5546 9b3c e6e2 693e 426f df3c 9d26 2b3e
00000070: bc4e a43c b643 243d 416a 1dbd 1d7a 313d
00000080: d0d2 6a3d 818b 933c 6859 543c bae3 9d3d
00000090: 7aee f93d 9d9d ca3c 8efc 413c 8dec 8c3d
000000a0: 1501 293b 00cc da39 c5b1 6b3d 262d f23c
000000b0: ee4d 673d 284a 0e3c 02f2 78bc f9d6 183e
000000c0: f12b b23e a40d b4bb 00c3 ce3d 9c01 61bd
000000d0: a068 c5bb 6963 0c3d 5d45 823c 0184 8d3d
000000e0: 3d3d 2f3d f6ef a2bc 1315 8d3c 048c 9d3d
000000f0: 183f 2a3d 4140 6cbd 3f1b fc3d e0f5 92bb
00000100: d01a 3bbb 629f a33d 33c5 803d a626 fe3c
00000110: 561f 65bd da81 cf3e 92d7 473d 2dd5 443d
00000120: 9fc0 463d 0ceb c3bc c9c2 8a3d 10c9 0dbb
00000130: 8021 b9bc 5cff 423d 4ae2 093e 1063 7cbb
00000140: df1e 4c3d c3bb 703d ad36 7a3d 5d18 153e
00000150: 2069 713d 0065 d03c e9ad 023e 8d44 0fbd
00000160: 81ef 45bc 17f6 9cbc 8a7d 133d cdc4 6f3d
00000170: 7021 9dbb e43a 943d 1ecd 4ebc 80b8 f13b
00000180: 7eb1 2a3d 1de8 e4bc fff0 2c3e 8747 bfbc
00000190: d0d0 9d3b e528 223f 48ad 353d 0cb7 c73c
000001a0: 6464 1b3e 2a38 753d b940 aebc c8a4 3cbc
000001b0: a2e7 0cbd acb9 d93e 6ded 513d 064a 103d
000001c0: f2de d6bc 70a2 3e3d 4a94 dd3d 3234 693e
000001d0: ddce de3d f09b 013e 6b1d 593d acad db3d
000001e0: d0c1 563d df0b f6bc 52f5 1d3d e3e0 393d
000001f0: 0aed 53bd 9814 3a3d 816f 913d 9f23 3b3d
00000200: d0e0 083d bf9e c83d 6505 c9bb 7c38 793d
00000210: 4eba d53c 57dc da3c e11b 1b3d 167c 133d
00000220: b1ed a0bc 12c1 11bd f132 363d 36ed 293d
00000230: 3d68 fb3b d5c9 1b3e 88c1 0abf a8ca 8f3e
00000240: 4e50 f93d 3820 a13c 94fb 99bc 829c 093d
00000250: cf89 393d 04a7 0abd cf31 513d 28aa 1b3d
00000260: 2e3f 0abd f7bb 40bd 1c8b 0f3d 73ce c73c
00000270: 0495 e5bc 7aba 5cbd fc02 f93c 78f4 003d
00000280: 4b18 e83b 0402 453d 69a2 ce3d a583 183c
00000290: 4d17 823d a0dc 18be abb5 d23c eb51 26be
000002a0: 7492 f43d 802b d53c 2022 33bd 174d b43c
000002b0: 1bf8 9a3b 5e43 163f 3686 573d 805c 413b
000002c0: abb4 633d a29c 1e3d 68be 25bd bcbe debc
000002d0: 9400 9cbc 360c f63a 11d7 823d 7417 fd3d
000002e0: 7431 42bd 6edf 633d 094a 52be 160d 2c3d
000002f0: 38d4 393c ecee 1e3d 0cec fb3c 0d39 c53d
00000300: 6e17 cf3d e938 ad3d f1ab 423d e3dd 8b3d
00000310: 7ccc 293c 3e97 a8bc 56c8 473e d8b4 69bd
00000320: 30d1 613d 44c5 12bb 6412 1dbd 9e22 313d
00000330: d0df 513b fdde 2bbc 6500 d73d 0881 ea3c
00000340: 4194 853d 2f89 c33d d65a 433d d0c1 533e
00000350: e5cd 57bd e32d 6f3d 413e 1c3d 5706 77bc
00000360: 370e f33d a226 1abc 1a09 57bc f0a7 af3e
00000370: f2b4 9ebc 3b03 503d 126e 8cbc 0aab 553d
00000380: 19c0 453d 4809 aebb fd60 833d e9fb 8d3c
00000390: 53a3 573e 07bb b4bb 4c59 d5bc 4976 45bd
000003a0: 83f3 f4bc 90ca cd3c a006 b6bb 4747 a33e
000003b0: 002a 79bc 7a83 5b3d 8c32 063d e80b 033d
000003c0: c23f 0abd 10eb 0a3d a052 153e d827 5a3d
000003d0: 146e fa3c 9af6 823d 9217 a83d f561 733d
000003e0: 0249 a63d d4ee 4f3d 1644 cf3c 470f 8a3d
000003f0: 3bd8 f13a 4db7 803d 7f66 103d fe41 423d
0.51260865 0.040994227 0.051054716 0.00028318635 0.09484267 0.0143506825 0.01804293 0.058476817
0.03675482 0.057026695 0.100291245 0.089914545 0.15725893 -0.008591253 0.6830119 0.029491778
0.02708681 -0.034234047 0.038706705 -0.046062723 -0.027826535 0.032297775 -0.004521444 -0.05411881
0.018954435 0.22840461 0.027274732 0.16713949 0.020057075 0.040103637 -0.03843141 0.043329347
0.057329953 0.018010857 0.012960769 0.07709451 0.12203689 0.024733359 0.011839999 0.06881056
0.0025787998 0.00041732192 0.05754258 0.029562544 0.056470804 0.008684672 -0.015194418 0.14925756
0.3479915 -0.00549479 0.10095787 -0.054933175 -0.006024435 0.034274492 0.015902216 0.06909943
0.04278301 -0.019889813 0.017221963 0.076927215 0.041564077 -0.057678465 0.12309884 -0.004484877
-0.0028549917 0.07989384 0.06287613 0.031024288 -0.055938087 0.40528756 0.04878957 0.048054863
0.04852354 -0.02391579 0.067754336 -0.0021634735 -0.022598982 0.04760681 0.13465229 -0.0038511194
0.04983413 0.058772814 0.0610873 0.14560075 0.058938146 0.025438786 0.12761654 -0.034977484
-0.012081028 -0.019160314 0.036008395 0.058537293 -0.004795246 0.07237795 -0.012622146 0.0073767304
0.041673176 -0.027942711 0.16888808 -0.023349537 0.004816152 0.6334365 0.044354707 0.024379276
0.15175015 0.059868015 -0.021271097 -0.011513896 -0.03440059 0.4252447 0.051251817 0.035226844
-0.026229355 0.04654163 0.108192995 0.22773817 0.108793 0.12657142 0.05300657 0.10726485
0.052430928 -0.030034957 0.038564034 0.045380484 -0.05173973 0.045429796 0.07101346 0.045688268
0.033417523 0.097959034 -0.0061346763 0.060844883 0.026089814 0.026716394 0.037868384 0.03600701
-0.01964459 -0.035584517 0.044482175 0.041485988 0.0076723383 0.15213712 -0.54201555 0.28084302
0.1217352 0.019668683 -0.01879672 0.033596523 0.04529744 -0.033850685 0.05107289 0.03800407
-0.03375166 -0.047054257 0.035044774 0.024390435 -0.028025158 -0.053888775 0.03039693 0.031483144
0.007082974 0.048097625 0.10089571 0.00930873 0.063521005 -0.14927912 0.025721392 -0.16242187
0.11941996 0.026021719 -0.043733716 0.022009416 0.0047292835 0.58696544 0.052618228 0.0029504597
0.05559222 0.038723595 -0.04046479 -0.027190559 -0.019043244 0.001877195 0.06388677 0.12357989
-0.047410443 0.055633 -0.20536055 0.042004667 0.011342101 0.038802072 0.030752204 0.09630022
0.10111891 0.084581204 0.047527257 0.06829431 0.010363694 -0.02057993 0.19510016 -0.05705723
0.055131137 -0.0022395412 -0.038347617 0.043245904 0.0032024272 -0.010490176 0.10498122 0.02862598
0.06522418 0.0954765 0.04769405 0.20679402 -0.05268659 0.05839337 0.038145307 -0.015077195
0.11867946 -0.009408625 -0.013124729 0.34307814 -0.01937339 0.05078433 -0.01714233 0.05216507
0.0482789 -0.005311165 0.064149834 0.017332034 0.21058397 -0.0055154595 -0.026043557 -0.04820851
-0.029901272 0.025121003 -0.005554989 0.31890318 -0.0152077675 0.053592183 0.03276305 0.031993777
-0.03375221 0.03391558 0.145823 0.053260654 0.030570067 0.06394692 0.08207621 0.05941959
0.08119394 0.050764874 0.02530102 0.06741195 0.0018451283 0.06284962 0.035253998 0.047426216

fc2.bias f4 [300]
00000000: 691d a4bc 2446 59bd 1b41 e6ba c8fb a7bb
00000010: 4be0 0fbd 6782 383c 6ed3 b2bd 805c d13c
00000020: b00b 5dba 7df5 fbbb e9be 2abd 3128 883c
00000030: b07c 083c 70ae 85bc 088b a4bb 3bf4 ddbc
00000040: e276 0b3d c0dc 37bd d12a cb3c 0567 453d
00000050: 4371 1bbd 40ec aa3b 304c 54bd c9e9 cb3c
00000060: a4e1 a43a 0dab ad3c c24c 69bd 74cc 08bd
00000070: dfd3 5b3d 60b0 b0bc 22c1 213d 3caf af3c
00000080: 21ea eebc 96a1 26bd ac20 9cbc b2af 82bb
00000090: 836c 1abd 0dae 51bd 3c4f 6cbc 135d 5d3d
000000a0: b993 d73c d020 823c a608 b83c 01db c3bc
000000b0: db92 063d 6afe 14bb a480 32bd 29d0 0c3d
000000c0: bbf9 9dbb a571 0cbd 5ca4 843c 8be7 f33c
000000d0: 5e13 04bc be4f f43c cd5d 60bd 6056 41bd
000000e0: 158f 1dbd 79d7 5ebd 2069 f2ba 487d 88bb
000000f0: 77ce 6bbb 195b 103d 0261 1c3d fd2c d0bc
00000100: 20b2 8c3c 6f3d d7bc ad12 963d 21e4 2a3d
00000110: 06aa 3c3d 6bd3 02bd 44ff 893c 818f 36bd
00000120: 9e97 80bc 9b06 903c 01bf 103c ca8c 37bd
00000130: eeda 0dbd cf3c 42bc b64b 52bd 5a23 9e3c
00000140: cce0 e93b a3bc f6bb 54dd 39bd a969 56bd
00000150: bbac 8b3c 99da 9cbb 57a9 163d 6c41 92bc
00000160: 0e14 5fbc e892 123d a11f 073d bb96 3e3c
00000170: f0a9 1d3c 5099 14bd e349 2a3d 5d8c 313d
00000180: 6ca1 ff3c a3b4 02bd 6bdd 703d 3366 5b3c
00000190: 9058 19bc 8631 4aba 1e62 c43c 71d2 5dbd
000001a0: 8460 d4bb 4e4b 39bd 98d6 5c3d b17c f83c
000001b0: 8d51 383d fa4b 403d e8a1 893d 602a a23d
000001c0: b565 3c3d 983f 8cbb e824 1dbd 994b 3dbc
000001d0: 56ab 16bc 4c7a a5bc f9a8 dfbc de67 c8bc
000001e0: f281 0e3d a3c8 30bd ae4d b43c b1ac c73c
000001f0: 6075 dabc 19fa 3d3d e66d d73c 3c4c 10bd
00000200: d089 7b3d ef74 bc3b 8b8a 1c3d 44b1 d63d
00000210: 5644 09bd aa20 4d3c e50b e0bc d267 3d3d
00000220: a08a 2b3d 88cd f03c 8333 c83c 9ca4 d5bc
00000230: 9763 20bd 2212 0fbd f179 cebc 3c0f 02bd
00000240: 3ac8 2ebc 6cd7 66bd 68f0 05bd 23d6 82bc
00000250: e0ff 023b 85d1 823c f31b 923d 4ee9 89bc
00000260: 5979 5b3c 1353 34bd 544e 193c f67c a8ba
00000270: ac9a 4c3d 1f97 763d 6d05 b8bd 9c3f 32bc
00000280: 20e6 e0ba 66c4 20bd 1ea6 c03c c24c efbb
00000290: 2857 c9bc a60b 413d 731f f13b f71d 813b
000002a0: a56c 4f3d fb16 5e3d a6d1 0dbc 8867 02bd
000002b0: 5681 383c 452b 16bc 3e16 69bd c049 c3bc
000002c0: 5861 463d af57 8ebb 32e6 123d 7839 873b
000002d0: 2ddd 28be e259 853d 8ae8 793d 21f4 833d
000002e0: 4cec 02be b13f 543d c498 fbbc 0d2b 89bd
000002f0: 04d9 e23b 648b 923c 113c 483d ac41 3dbd
00000300: 8f1b 173c 65c8 183d 5afa 83bc 1871 213c
00000310: 924d d63c 5c0a 16bc 37f8 28bd da9a 8b3c
00000320: 13ee c3b9 fc8c d43c 63e8 403c 1591 7fbd
00000330: 58b5 7b3d 94ab 4abd 9573 debc 1c11 27bc
00000340: e866 3e3d 73ba 4bbd 4093 8a3c f401 09bd
00000350: fd43 9abd 6acd 53bc e0d5 8e3a e455 583d
00000360: 8709 1abc 5293 e1bc 23ac 563d d7e3 273d
00000370: 11c3 29bd 7b7f 81bb 9c3b 48bd 8976 d538
00000380: e30b 003c 2929 223d 9367 3c3d 6dfc e43c
00000390: ff24 a53c 1888 54bc 39ca 62bc 2071 e6bc
000003a0: c6f1 a4bc 002f 5e3d 7e23 5a3d cd6a 993c
000003b0: 4c66 eb3c 2e8d 3a3d 749d c1bc 8879 7fbc
000003c0: 00a2 bb3c 4a08 b03c afd1 36bd d8da b039
000003d0: da17 a0bb 0b2d c7bc ae91 8bba 534e 5f3d
000003e0: ef92 833d a0a1 63bb 8ddf c63c 1c22 383d
000003f0: 7ded 773d 86b6 9b3c d3a3 803d e88e 98bb
-0.020033555 -0.053045407 -0.001756701 -0.00512645 -0.03512601 0.011261559 -0.08731733 0.025556803
-0.00084322225 -0.0076891766 -0.041685972 0.016620727 0.008330509 -0.01631853 -0.0050214566 -0.027093997
0.034048922 -0.044888258 0.02480069 0.04819395 -0.03794981 0.0052161515 -0.05183047 0.02489175
0.0012579453 0.021199727 -0.056957968 -0.033398107 0.053668853 -0.021568477 0.039490826 0.021445863
-0.029164376 -0.040681444 -0.019058548 -0.0039882297 -0.03770114 -0.05119138 -0.014423188 0.05404384
0.026315557 0.015884787 0.022465061 -0.02390814 0.032854896 -0.002273465 -0.043579713 0.034378204
-0.00482103 -0.034288067 0.016191654 0.029773494 -0.008061258 0.02982318 -0.054776955 -0.047201514
-0.03846653 -0.05440471 -0.0018494464 -0.0041653253 -0.0035981217 0.035243127 0.03817845 -0.025412077
0.01717478 -0.026274411 0.07327781 0.041721467 0.046060584 -0.031939905 0.016845353 -0.04457045
-0.015697297 0.017581275 0.008834601 -0.044812 -0.034632616 -0.011855318 -0.051341735 0.019303966
0.0071373936 -0.0075298115 -0.04537709 -0.05234686 0.017050138 -0.004786801 0.03678259 -0.017853461
-0.013615621 0.035784632 0.032989148 0.011632617 0.009623036 -0.036279023 0.04157437 0.04334675
0.031204902 -0.03191055 0.05880491 0.013391065 -0.009359494 -0.0007713068 0.023972567 -0.05415577
-0.006481232 -0.04523783 0.05391559 0.030332895 0.044999648 0.046947457 0.06720334 0.07918239
0.045995433 -0.004280042 -0.038365275 -0.011553668 -0.009196123 -0.020199917 -0.027302252 -0.02446359
0.034791894 -0.043160092 0.022009697 0.024374338 -0.026667297 0.04638109 0.02629752 -0.035228953
0.061410725 0.0057512443 0.038218062 0.104830295 -0.033512436 0.012519995 -0.027349422 0.04624159
0.04188025 0.02939488 0.024438625 -0.026079468 -0.039157476 -0.034929402 -0.02520463 -0.03175281
-0.010667855 -0.056357786 -0.032699972 -0.015971249 0.001998894 0.015969047 0.07134237 -0.016834881
0.013395631 -0.04402454 0.009357054 -0.0012854624 0.049952194 0.060202714 -0.0898541 -0.0108794235
-0.0017158426 -0.0392498 0.02351671 -0.0073028514 -0.024577692 0.04713025 0.0073584854 0.0039403397
0.05064072 0.054221135 -0.008655941 -0.031837016 0.011261305 -0.00916559 -0.056905977 -0.023838878
0.048432678 -0.004343949 0.035864063 0.004126724 -0.16490622 0.065112844 0.061012782 0.06443048
-0.12785453 0.051818553 -0.030712493 -0.066976644 0.006922843 0.017888732 0.04888541 -0.046205208
0.009222879 0.037300486 -0.016110588 0.009853624 0.026160035 -0.009157743 -0.04125234 0.017041612
-0.00037370677 0.025946133 0.011774155 -0.06239422 0.06145224 -0.049480036 -0.027154723 -0.01019695
0.046484858 -0.04973836 0.016915917 -0.03344913 -0.07532499 -0.0129273925 0.001089748 0.052816287
-0.009401686 -0.027536068 0.052410256 0.04098877 -0.041445795 -0.0039519644 -0.048884973 0.0001017871
0.007815334 0.039590035 0.045997214 0.027952397 0.020159243 -0.0129719 -0.013842159 -0.028130114
-0.020134818 0.05424404 0.053256504 0.018727684 0.028735302 0.045544796 -0.02363465 -0.01559294
0.022904396 0.021488328 -0.044633564 0.00033732387 -0.004885656 -0.02431347 -0.0010648274 0.054518055
0.0642451 -0.0034733787 0.02427652 0.044954404 0.06052922 0.019007932 0.06281247 -0.0046557076

fc3.weight f4 [1, 300]
00000000: f2c2 44bd c87b 923c 1b91 41bd 9ba9 26bb
00000010: a886 8bbb b41b 42bd da4d 86be fb00 4cbd
00000020: 1b6a adbb 66a0 4fbd a2a1 d9bb de69 4abd
00000030: 152c 46bd 6c7c d9bb ccaf 163a bf4a c1bb
00000040: 34d0 4abd 9a04 323b 1c78 39bd d64b 063b
00000050: db39 43bd 98b3 2bbe 2b5b a9bc 62b7 4fbd
00000060: a6f8 42bd c0ac 44bd b982 ebbb fae0 33bb
00000070: 16b2 40bd 9541 41bd bf0c 4abd 2252 42bd
00000080: 8c0f ddbb 9703 aeba c602 4ebd 17d8 49bd
00000090: bc1b b7bb 1463 963c f85a bd39 a7cb 40bd
000000a0: 23f6 3cbd 8e68 39bd 2d0c b2bb d018 41bd
000000b0: f964 b3ba 8cb4 c9bb 92b7 11bc 0622 e2bb
000000c0: bfdf d03b e585 44bd 6c95 47bd 1b53 3dbd
000000d0: 6100 57bd 45ea 07bb bfde 0bbc 41e6 b5ba
000000e0: 986d 7dba 69de 3c3c d297 973c dd8b e8bb
000000f0: dacc 3ebd 7c12 233a 5a39 4abd a064 5bbd
00000100: fec2 45bd ba41 88bc 12ff 1f3e 4ee4 adbb
00000110: 96b8 4abd 3a14 33be 3b10 8cbb 1165 0a3c
00000120: 6c63 0e3c 79e7 54bd e144 01bc 76ff 9ebb
00000130: 814c 66bb 6c5b 48bd 87f0 be3c 40a5 40bd
00000140: 22da 95bc 401f 1dbc d7e8 16bc b57f f63b
00000150: 86bf 3bbd 68d5 40bd 6996 53bd 6b83 4bbd
00000160: cafd 98bc ee5f d5bb 3af5 c13d e536 afbb
00000170: 2fff 3dbd 4060 c2ba 5dae 48bd 7f27 5abd
00000180: 7c6f 46bd 9421 4fbd 9f60 45bd 1ee9 32bd
00000190: 6417 48bd 1e97 48bd 05fb 7abb 525a 93bb
000001a0: f0a8 2cbe f6e6 333b 64c8 47bd 985f 4abd
000001b0: 838d faba b020 43bd 4c43 45bd 7e04 233e
000001c0: 187f 4ebd e847 c2b9 f8f1 ad3a 1e38 53bd
000001d0: 93c9 4ebd 1efc 51bd 6791 3cbd c6cd 4bbd
000001e0: 6fba 44bd 8f05 173c dfc9 c83b 5d11 81bb
000001f0: f68d 03bb 0fd9 42bd 614e 4cbd 0044 b6b8
00000200: 005c 39bd 7f09 34bb d7cb b7bb 25b1 463e
00000210: 0afa 31bb f58e 87bb 1cca 21bc 6d48 45bd
00000220: dbbc 4dbd 229e c2bb 5079 77bb e508 88bb
00000230: c4a6 3bbb 7f5b 1dbb a940 8dbb 4cb4 3fbd
00000240: 6a11 bcbb cfce 05bc e288 baba ad60 14be
00000250: dc31 46bd ff8c 55bd 0d5a 213e 7cfd 52bd
00000260: 7dfe e7bb aa39 8abb 606a e13a 9ef0 4a3b
00000270: 2e21 44bd 58c8 4bbd 4fb0 35be 4aeb 0bbc
00000280: 186e 0e3a 5fcc 82bb 9745 3abb e955 cfbb
00000290: 2a0d b1bb 2704 3fbd 701c 45bd d670 8abb
000002a0: e5a0 49bd b475 49bd 41fd 93bb 71f0 1b3c
000002b0: d788 c2bb b422 47bd aa37 0ebc 4e59 52bd
000002c0: 4426 55bd 6dc7 28bc 953e 4bbd e8be dc3a
000002d0: a7c0 66be f83c 49bd f2f4 4fbd 7b8e 44bd
000002e0: 5bd7 34bf 2e50 51bd 7025 193b f8fb f7bd
000002f0: 5ec1 4bbd e83a b9bb 0678 4fbd 0496 ccbb
00000300: 4ccc 00bc e558 4bbd 14e0 aebc 6652 44bd
00000310: 3d41 37bd 3a1c 063b e82a 28bb 924d d2ba
00000320: 3e65 4dbd 0a20 773c ee7f 50bd 7555 29be
00000330: 79be 47bd 00ee eb36 fb6c b53b bdf6 8dbc
00000340: 04ac 46bd a07b 0f39 b47f 51bb ecf4 23bc
00000350: 7e1c 69be ee93 42bd c0c0 263b d5be 57bd
00000360: 64be 4cbd a7bd 2d3c b7c3 40bd ec44 8ebb
00000370: a945 e8bb 55a7 0cbc 0f03 c2bb 691e 3cbd
00000380: 7426 4fbd bab7 40bd 435a 4cbd c811 4ebd
00000390: 41cc 46bd 0381 8ebb cdf0 3bbd 8343 48bd
000003a0: 2719 55bd 3d57 45bd de8b 4dbd 522c 4bbd
000003b0: 44fa 4dbd ae94 5cbd d16b ecbb dfdb a0bb
000003c0: ff6a acbb ec0e 48bd c550 36be 1246 79bb
000003d0: 1249 42bd 4723 8bba d5ff 5ebd b6eb 3cbd
000003e0: b10b 44bd a82b 223a 8c9a 4bbd 76ff 48bd
000003f0: e03a 49bd a986 adbb 0389 42bd 982f 303b
-0.048037477 0.01788129 -0.047257524 -0.0025430683 -0.0042579956 -0.0473897 -0.2623127 -0.049805623
-0.00529219 -0.050690077 -0.0066415826 -0.04941737 -0.048381884 -0.0066371467 0.00057482417 -0.005898803
-0.049514964 0.0027163387 -0.04528056 0.002049198 -0.047662597 -0.16767728 -0.020673355 -0.050711997
-0.04760041 -0.04801631 -0.007187214 -0.002744733 -0.047044836 -0.047181685 -0.049328562 -0.04744161
-0.006746238 -0.0013276216 -0.050295614 -0.049278345 -0.005588023 0.018357791 0.00036116666 -0.047069218
-0.04613317 -0.045265727 -0.0054335804 -0.047142804 -0.0013686708 -0.006155556 -0.008893864 -0.0069010286
0.006374329 -0.047979254 -0.048726484 -0.046221834 -0.052490596 -0.0020739 -0.0085369935 -0.0013877825
-0.0009667515 0.011527636 0.01850501 -0.007096751 -0.04658208 0.0006220711 -0.0493711 -0.05356276
-0.048281662 -0.016632903 0.15624645 -0.005306757 -0.04949244 -0.17488185 -0.0042743958 0.008446948
0.008690696 -0.051978562 -0.007889957 -0.0048522307 -0.0035140815 -0.04891531 0.023308052 -0.047032595
-0.01829249 -0.00958997 -0.009210787 0.007522548 -0.045836948 -0.04707852 -0.051657114 -0.049685877
-0.018675704 -0.00651168 0.094706014 -0.00534712 -0.04638594 -0.001482971 -0.04899441 -0.053260323
-0.048446164 -0.050569132 -0.04818785 -0.04367935 -0.048850432 -0.04897224 -0.0038296592 -0.004496851
-0.1686132 0.0027450896 -0.04877509 -0.04940757 -0.001911566 -0.047638595 -0.048159882 0.15919682
-0.050414175 -0.00037056138 0.0013270965 -0.05156719 -0.050485205 -0.05126583 -0.046037104 -0.049756788
-0.04802936 0.009217634 0.0061275805 -0.0039388374 -0.002007363 -0.047570284 -0.049879435 -8.691102e-05
-0.045253754 -0.002747148 -0.0056090164 0.19403513 -0.0027157092 -0.004136915 -0.009874847 -0.048164774
-0.050228935 -0.005939261 -0.0037761517 -0.004151451 -0.0028633336 -0.0024010835 -0.0043106866 -0.046802804
-0.0057393806 -0.008166983 -0.0014231468 -0.14490004 -0.048387393 -0.052136417 0.15757008 -0.051511273
-0.007079898 -0.0042183 0.001719784 0.0030966173 -0.047883205 -0.04975161 -0.17743038 -0.008539984
0.00054332754 -0.003991648 -0.0028422826 -0.00632738 -0.0054031806 -0.04663482 -0.048122823 -0.004224877
-0.049225707 -0.049184516 -0.004516274 0.009517775 -0.0059367227 -0.04861708 -0.0086802635 -0.0513547
-0.052038446 -0.010301453 -0.04962023 0.0016841562 -0.22534429 -0.04913041 -0.050770707 -0.047987442
-0.70641106 -0.051101856 0.0023368262 -0.12108606 -0.049744956 -0.005652774 -0.050651573 -0.006243469
-0.007861208 -0.049645323 -0.021347083 -0.047930144 -0.04473995 0.0020463602 -0.002566034 -0.0016044846
-0.05014538 0.015083322 -0.050903253 -0.16536506 -0.048765633 7.0312526e-06 0.005536673 -0.017329568
-0.04850389 0.00013683597 -0.0031966986 -0.010007124 -0.22764775 -0.047504358 0.0025444478 -0.052672226
-0.04998626 0.010604299 -0.04706165 -0.004341712 -0.0070883823 -0.008584817 -0.005920775 -0.04592744
-0.05057378 -0.047050215 -0.049890768 -0.050309926 -0.048534635 -0.0043488755 -0.045883942 -0.04889251
-0.05202594 -0.0481789 -0.050182216 -0.049602814 -0.0502875 -0.05385273 -0.007215001 -0.004909023
-0.0052617784 -0.048842356 -0.17804249 -0.003803615 -0.047432967 -0.0010615372 -0.0544432 -0.04612323
-0.047862712 0.0006186315 -0.049707934 -0.04907175 -0.049128413 -0.0052955938 -0.047493946 0.0026883837
