checkpoint_actor.pth (torch_old, 489855 bytes, 5 tensors)

fc1.weight f4 [400, 3]
0.0029023911 0.08347297 -0.09006184 0.0154612325 -0.016707167 -0.023650153 -0.07251165 0.016354004
0.029444749 -0.012489803 -0.06944084 -0.019712055 0.054435086 0.06981532 -0.073101714 0.0216269
-0.042769413 -0.00012123585 0.04536633 0.11193845 -0.078807734 0.05249148 -0.08653377 -0.00066248386
0.040320758 -0.056266885 0.005407309 0.0011056995 -0.08401422 0.044232726 -0.04072042 0.0016602799
0.0005077198 -0.019620698 -0.015723065 0.0572449 -0.037134625 0.062220797 0.057130206 -0.008847166
0.023326907 -0.0065227374 0.03792825 0.017938916 0.027700428 0.058189593 -0.094939485 0.031865478
-0.0679634 -0.062210888 -0.06935033 -0.006706316 0.0136680715 0.0017826483 0.022507451 -0.08241973
0.0312139 -0.114642635 -0.053187635 -0.06937021 -0.0050741807 0.032885876 0.04791506 -0.041334726
0.020467106 0.015500363 0.06560251 -0.063749686 -0.0047783963 0.0024740398 0.02533121 -0.010311179
0.03512035 -0.061694387 -0.022679137 -0.052574236 -0.06560858 -0.029692998 -0.110028446 -0.006235655
0.06802534 -0.002597671 -0.003707409 -0.002865702 0.026745234 -0.024214882 0.04393435 0.026897851
0.034730706 -0.04139321 0.006111514 0.03656326 0.009795338 0.029136665 -0.060204968 0.000120509736
0.04281654 -0.002116371 -0.017223157 -0.017640783 0.014035963 0.07859139 -0.028441621 -0.02724796
0.048728902 -0.03374402 0.031783 0.09393785 0.082804255 0.11699184 -0.084730655 0.020678338
-0.09765204 -0.0077413158 -0.016176216 -0.020508831 -0.01582573 -0.019506078 -0.08676376 -0.0048267758
-0.006114831 0.00073969935 0.056657284 -0.047045793 0.04820553 0.0062896386 -0.03328328 -0.015898747
0.05221408 -0.016045593 -0.01208385 0.08502914 -0.041912757 0.044237133 0.058945302 0.025978517
0.038606096 -0.02169457 0.006043638 -0.056893107 0.011163397 -0.12641932 0.02573706 0.04869137
-0.13507609 0.101554215 0.09077081 -0.022335058 -0.026086517 0.012684524 -0.02116039 0.009931782
0.05892061 0.022994865 0.07907484 -0.08348941 -0.034439076 -0.03399934 -0.03088873 -0.021256018
-0.016982004 -0.025596868 -0.053508922 0.0064404113 0.06452263 0.020348754 0.008426357 -0.01426781
-0.036293514 0.061773334 0.07845005 0.03250275 0.008120335 0.030994179 0.017540587 -0.06410659
-0.07687959 -0.026830778 0.0038496365 0.070449196 -0.036599018 -0.0052224174 0.032829437 0.04692257
-0.03388556 0.046090607 -0.100563645 0.08421631 0.05349644 -0.046556752 -0.04504026 0.009658836
0.035360176 0.043541465 0.012845967 -0.10477634 0.03380039 0.03478919 0.047458496 0.02529252
-0.005345635 -0.050473686 -0.05509175 0.061621115 0.039893623 -0.015788503 -0.013104968 0.03539503
-0.010109372 0.017269824 0.024060313 -0.028099073 0.008834489 -0.010871367 0.09788004 -0.082567215
0.005779322 -0.02432381 0.026384795 0.059758354 -0.07124976 -0.004507751 -0.04719903 0.011224118
0.062499348 0.013637457 -0.024840666 -0.013430454 0.022428174 0.048059914 0.02893236 -0.0033231564
0.004577093 -0.013995934 0.026950728 -0.14477965 0.009393789 0.034223232 -0.098440185 -0.079195276
0.04482853 -0.026618088 -0.012604467 0.001860767 -0.0020753501 0.00875607 -0.1270214 0.08083415
0.09009385 -0.08292695 -0.07383292 -0.062101208 0.06704458 -0.052885037 0.001963384 -0.034346577
00000000: 0b36 3e3b e0f3 aa3d 5872 b8bd 1c51 7d3c
00000010: 78dd 88bc f7bd c1bc fd80 94bd d5f8 853c
00000020: 1d36 f13c 08a2 4cbc 0037 8ebd 2d7b a1bc
00000030: 53f7 5e3d 56fb 8e3d 5ab6 95bd e62a b13c
00000040: fb2e 2fbd 0040 feb8 0bd2 393d fc3f e53d
00000050: f365 a1bd 4e01 573d 9e38 b1bd 8aaa 2dba
00000060: 6127 253d 1b78 66bd cc2f b13b 1eed 903a
00000070: a60f acbd 602d 353d 75ca 26bd c09d d93a
00000080: 8018 053a 96bb a0bc a8cd 80bc a179 6a3d
00000090: 7a1a 18bd 3cdb 7e3d 5d01 6a3d b4f3 10bc
000000a0: 1218 bf3c b0bc d5bb a75a 1b3d a2f4 923c
000000b0: 02ec e23c 3658 6e3d a26f c2bd 6085 023d
000000c0: 6530 8bbd d8d0 7ebd 8c07 8ebd a8c0 dbbb
000000d0: 0cf0 5f3c c0a7 e93a 8c61 b83c adcb a8bd
000000e0: 4bb4 ff3c c2c9 eabd 47db 59bd f811 8ebd
000000f0: 5045 a6bb 57b3 063d 9542 443d 9a4e 29bd
00000100: a2aa a73c 3cf5 7d3c 9c5a 863d 328f 82bd
00000110: 1894 9cbb 8023 223b 6683 cf3c 38f0 28bc
00000120: 5bda 0f3d 41b3 7cbd 99c9 b9bc 1558 57bd
00000130: cb5d 86bd bb3e f3bc 9856 e1bd 7754 ccbb
00000140: df50 8b3d b03d 2abb 00f8 72bb 80ce 3bbb
00000150: d218 db3c 4a5e c6bc 81f4 333d e258 dc3c
00000160: c941 0e3d ed8b 29bd 1843 c83b 5bc3 153d
00000170: a07c 203c 04b0 ee3c 7c99 76bd 2cba fc38
00000180: 6560 2f3d d0b2 0abb 9417 8dbc 6783 90bc
00000190: 19f7 653c 86f4 a03d 67fe e8bc 1d37 dfbc
000001a0: f597 473d 2b37 0abd e42e 023d 7d62 c03d
000001b0: 4795 a93d 6b99 ef3d 4487 adbd 9e65 a93c
000001c0: cbfd c7bd ddaa fdbb fc83 84bc 2302 a8bc
000001d0: f6a4 81bc 36cb 9fbc 33b1 b1bd ee29 9ebb
000001e0: ec5e c8bb 62e8 413a 7811 683d 17b3 40bd
000001f0: 2973 453d 5019 ce3b 0c54 08bd 173e 82bc
00000200: 6ede 553d 0c72 83bc 57fb 45bc c223 ae3d
00000210: b6ac 2bbd ff31 353d a170 713d e6d0 d43c
00000220: 6d21 1e3d d0b8 b1bc b609 c63b bf08 69bd
00000230: aee6 363c 1174 01be 87d6 d23c 9a70 473d
00000240: 6351 0abe a8fb cf3d 0ce6 b93d 03f8 b6bc
00000250: 64b3 d5bc c0d2 4f3c 8e58 adbc eab8 223c
00000260: bd56 713d ba5f bc3c fdf1 a13d 7ffc aabd
00000270: fd0f 0dbd e442 0bbd 5d0a fdbc 1a21 aebc
00000280: d81d 8bbc 86b0 d1bc 2c2c 5bbd 160a d33b
00000290: 7124 843d 6eb2 a63c b40e 0a3c 88c3 69bc
000002a0: 82a8 14bd 0906 7d3d 6baa a03d 9b21 053d
000002b0: 270b 053c 81e7 fd3c 47b1 8f3c 514a 83bd
000002c0: 0c73 9dbd 38cc dbbc 2f4a 7c3b ab47 903d
000002d0: dae8 15bd d020 abbb 2978 063d e131 403d
000002e0: 96cb 0abd 81c9 3c3d 50f4 cdbd 9a79 ac3d
000002f0: 151f 5b3d 4bb2 3ebd 237c 38bd 1840 1e3c
00000300: d5d5 103d 8958 323d e477 523c fa94 d6bd
00000310: 4772 0a3d 1c7f 0e3d d763 423d 4232 cf3c
00000320: 702a afbb 7fbd 4ebd e3a7 61bd 6c66 7c3d
00000330: 7f67 233d e456 81bc 38b6 56bc 61fa 103d
00000340: c8a1 25bc 7279 8d3c 221a c53c 0730 e6bc
00000350: 88be 103c d11d 32bc 5575 c83d 0019 a9bd
00000360: 7760 bd3b ba42 c7bc ed24 d83c 2dc5 743d
00000370: 65eb 91bd c2b5 93bb c553 41bd 5de5 373c
00000380: 51ff 7f3d a46f 5f3c a77e cbbc 680b 5cbc
00000390: 4abb b73c 79da 443d 8e03 ed3c 50c9 59bb
000003a0: 70fb 953b 344f 65bc c6c7 dc3c 1e41 14be
000003b0: 68e8 193c a92d 0c3d 029b c9bd 2231 a2bd
000003c0: 1f9e 373d 2d0e dabc f782 4ebc fbe4 f33a
000003d0: 9902 08bb 9f75 0f3c e611 02be 608c a53d
000003e0: 2083 b83d 9bd5 a9bd b735 97bd d65d 7ebd
000003f0: ab4e 893d fb9d 58bd 1eac 003b ffae 0cbd

fc1.bias f4 [400]
-0.12048249 0.61460024 0.06019431 0.5449297 0.104859196 -0.45445186 0.10015976 0.40332153
0.33115944 0.41363093 -0.086640716 0.124982245 0.010807645 -0.21624646 -0.18638492 0.61083364
-0.28432196 -0.080426335 0.5474083 -0.29246917 -0.4999559 -0.50319576 0.5648493 -0.2594539
0.4605371 -0.13077566 0.10597133 -0.06752384 -0.5085116 -0.486234 -0.42814198 0.25040475
-0.4656543 0.48241633 -0.39327732 0.21899039 0.062772214 0.48403552 -0.36424983 0.32861242
0.14616963 -0.2979961 0.11118288 0.29748106 0.10599873 -0.41349167 0.5465284 0.0118828425
-0.1773333 0.55092764 0.23380204 -0.16869618 -0.4410186 0.5610547 0.2944789 -0.25897384
0.15066636 0.37677148 0.12674229 0.09991246 -0.45190847 -0.5526156 -0.004294991 -0.41264048
-0.52523077 0.00638053 -0.27506152 0.34730446 -0.47309703 -0.27047765 -0.41408575 0.06589847
0.31776944 0.38855657 0.18390387 -0.5518018 -0.3175722 -0.19352022 0.052813828 -0.11133973
0.46632358 0.4567593 -0.15872203 -0.2472138 0.42540732 -0.32222253 0.0051846034 -0.47868407
0.5193667 0.19830444 -0.3955187 0.0152094 0.47386336 0.12892945 0.45673504 -0.35576844
0.12365601 -0.29836857 -0.16912797 0.2614691 -0.3973016 -0.049533967 0.33287388 -0.35497034
-0.21190889 0.4260309 0.5382125 -0.47061455 0.4810218 -0.32957965 0.064647734 -0.32177368
-0.50709474 -0.2655806 0.034177832 0.006491718 0.065738745 0.06876112 0.5648673 0.13983376
-0.5554082 0.40729535 -0.2883708 0.5324806 -0.42429203 -0.51661 0.43546933 0.17505556
-0.55342025 0.0454413 0.34548172 0.12484455 0.38714018 0.073313944 0.45509535 -0.36584187
0.5652043 -0.49279177 0.08624673 0.29226696 0.5762356 -0.07938034 -0.005308389 -0.24686342
0.058379088 -0.5191728 0.27142325 -0.55087614 -0.3095234 -0.17068753 0.05896381 -0.4612951
0.28295133 -0.1889994 -0.27379695 0.55359876 0.40542337 -0.45849818 -0.21771795 -0.17065355
-0.14413315 0.16661902 -0.042542607 0.57941085 0.61024475 -0.038460575 0.051808603 -0.18082547
-0.0032808306 0.34139815 -0.2668319 0.5668066 -0.17597131 -0.20107141 -0.42648473 -0.16281013
0.47559023 -0.5023136 -0.19477548 -0.3746826 0.539984 0.5490789 0.54433227 -0.022304423
-0.2217512 0.072289884 -0.019811101 -0.5188243 -0.43852192 -0.45815623 0.30074704 0.106159225
0.09815253 0.013021825 0.28718033 0.59195924 0.38351014 -0.37601987 -0.02240779 -0.4388687
-0.47907776 0.53819036 -0.5609738 0.22383519 0.18619436 0.36743924 0.07097383 -0.33968544
0.15405314 0.009949105 -0.48157954 -0.05000535 -0.3403646 0.050700895 0.5368948 0.4585454
-0.13394848 0.38399494 0.27739564 -0.30993885 -0.13770263 0.42739162 0.12249663 0.13545464
0.33998293 0.35710803 0.5915303 0.2518953 -0.16813433 -0.20028713 0.38803113 -0.36441153
-0.3021363 -0.40578958 -0.5423882 -0.23045985 -0.5607523 0.29163137 0.5276273 0.1307688
-0.50206584 0.5500924 -0.03328335 0.13075323 -0.14572516 0.3058479 0.0035306918 -0.17772728
0.06331827 0.58873844 0.27680704 0.23492491 0.35599315 0.07462484 0.41871592 -0.37795427
00000000: 86bf f6bd 7156 1d3f 4f8e 763d 8380 0b3f
00000010: 6bc0 d63d eaad e8be 8f20 cd3d 2980 ce3e
00000020: bb8d a93e 6fc7 d33e b070 b1bd b1f6 ff3d
00000030: 8c12 313c b66f 5dbe b0db 3ebe 985f 1c3f
00000040: a692 91be 90b6 a4bd f322 0c3f 85be 95be
00000050: 38fa ffbe 70d1 00bf f799 103f 24d7 84be
00000060: 85cb eb3e 0eea 05be 7f07 d93d f049 8abd
00000070: d12d 02bf aaf3 f8be 6d35 dbbe 0d35 803e
00000080: 3e6a eebe 46ff f63e a55b c9be 043f 603e
00000090: b88e 803d 81d3 f73e f47e babe e33f a83e
000000a0: 7ead 153e f292 98be dab3 e33d 704f 983e
000000b0: dd15 d93d 2eb5 d3be 49e9 0b3f 41b0 423c
000000c0: dc96 35be 9809 0d3f cd69 6f3e b1be 2cbe
000000d0: 31cd e1be 48a1 0f3f f0c5 963e 3898 84be
000000e0: 4848 1a3e 31e8 c03e bbc8 013e e79e cc3d
000000f0: 8c60 e7be 3778 0dbf ffbc 8cbb 9d45 d3be
00000100: 8675 06bf c413 d13b ddd4 8cbe e4d1 b13e
00000110: c639 f2be 0c7c 8abe 0c03 d4be c7f5 863d
00000120: adb2 a23e e3f0 c63e 4c51 3c3e e242 0dbf
00000130: d398 a2be 2a2a 46be 5053 583d 1606 e4bd
00000140: f7c1 ee3e 5bdc e93e 0788 22be 9d25 7dbe
00000150: fdce d93e 5afa a4be 9be3 a93b 1416 f5be
00000160: 37f5 043f 5210 4b3e 6d81 cabe d930 793c
00000170: 389e f23e 1506 043e 2dd9 e93e 4827 b6be
00000180: 5d3f fd3d c4c3 98be e22f 2dbe 47df 853e
00000190: 1e6b cbbe 21e4 4abd 726e aa3e acbe b5be
000001a0: a5fe 58be b920 da3e 4bc8 093f 64f4 f0be
000001b0: 7d48 f63e aabe a8be 0866 843d 85bf a4be
000001c0: f6d0 01bf 2efa 87be 0efe 0b3d 7ab8 d43b
000001d0: 09a2 863d a1d2 8c3d 259b 103f 9530 0f3e
000001e0: 3b2f 0ebf 0489 d03e 56a5 93be a650 083f
000001f0: ce3c d9be 8e40 04bf d6f5 de3e c441 333e
00000200: f3ac 0dbf a820 3a3d fbe2 b03e 80ae ff3d
00000210: 3d37 c63e 9f25 963d 4202 e93e a04f bbbe
00000220: 3bb1 103f 344f fcbe 20a2 b03d 04a4 953e
00000230: 2d84 133f 2992 a2bd fff1 adbb c4c9 7cbe
00000240: e91e 6f3d 82e8 04bf fdf7 8a3e 3806 0dbf
00000250: da79 9ebe b6c8 2ebe 0984 713d df2e ecbe
00000260: ffde 903e 0f89 41be 1d2f 8cbe a6b8 0d3f
00000270: a793 cf3e 46c0 eabe 74f1 5ebe cebf 2ebe
00000280: a497 13be 2d9e 2a3e 2841 2ebd 4554 143f
00000290: 0039 1c3f d688 1dbd 4235 543d 502a 39be
000002a0: 3403 57bb bdcb ae3e 319e 88be 3d1a 113f
000002b0: d331 34be aae5 4dbe 355c dabe b3b7 26be
000002c0: 9080 f33e a097 00bf 3973 47be 66d6 bfbe
000002d0: 643c 0a3f 6f90 0c3f 5c59 0b3f c4b7 b6bc
000002e0: bf12 63be b80c 943d e44a a2bc abd1 04bf
000002f0: f285 e0be 7493 eabe 84fb 993e 026a d93d
00000300: 3204 c93d 7e59 553c 4d09 933e a48a 173f
00000310: 715b c43e ad85 c0be 8b90 b7bc 66b3 e0be
00000320: ae49 f5be d8c6 093f fb9b 0fbf 0d35 653e
00000330: bca9 3e3e ff20 bc3e ba5a 913d 40eb adbe
00000340: 1bc0 1d3e 9201 233c 9891 f6be 69d2 4cbd
00000350: 4544 aebe beab 4f3d f071 093f 76c6 ea3e
00000360: ca29 09be fc9a c43e cd06 8e3e 4eb0 9ebe
00000370: eb01 0dbe 13d3 da3e 83df fa3d 9fb4 0a3e
00000380: 3e12 ae3e ddd6 b63e 886e 173f 6cf8 803e
00000390: 682b 2cbe 1218 4dbe 04ac c63e 2694 babe
000003a0: 9cb1 9abe a7c3 cfbe f4d9 0abf abfd 6bbe
000003b0: 768d 0fbf b550 953e 9512 073f 42e8 053e
000003c0: 6387 00bf dbd2 0c3f 1f54 08bd 2de4 053e
000003d0: fa38 15be 1998 9c3e 2e63 673b 24fe 35be
000003e0: 02ad 813d 90b7 163f a7b9 8d3e 2890 703e
000003f0: bc44 b63e e8d4 983d ef61 d63e 3983 c1be

fc2.weight f4 [300, 400]
0.017879657 0.038537003 0.048829593 -0.020763032 -0.011510801 0.028243892 -0.0197937 -0.016240701
-0.040451117 -0.055547256 -0.012057602 -0.0009008013 0.016144074 0.048747353 0.050530843 0.040851638
0.031366825 0.053151056 -0.007029183 -0.029845586 -0.0278131 -0.04835587 -0.01902832 0.030300193
-0.0254529 -0.042247638 0.015070699 0.05137147 -0.013512693 -0.05584768 -0.048420258 0.011504039
0.0052966997 0.008341789 -0.04467467 0.0012217201 -0.009990245 0.028786331 0.054448076 0.034554973
0.036510386 -0.04845363 -0.0029905438 -0.03822758 -0.051088285 0.049194768 0.035892427 -0.020927794
0.0017036237 -0.057404444 -0.00083077326 -0.0111559965 0.025574185 -0.03116901 -0.022863429 -0.021700691
-0.054437526 -0.029073108 0.03183546 -0.02476627 -0.0286216 0.016961768 0.045225605 -0.0455998
-0.0144317 -0.0017282218 -0.04941277 -0.05658997 0.050162114 -0.05515692 -0.05415085 -0.012146197
0.009700865 -0.018596888 0.012372628 0.027774677 -0.01403923 -0.038350202 -0.054195005 -0.030293241
-0.04482768 0.047021046 -0.05625527 0.056225732 -0.018037185 0.0207797 0.057383157 -0.05561648
0.0054602697 -0.04009995 0.04968319 0.05767326 -0.016240954 0.0013856441 0.022622623 0.044553183
0.045650728 -0.04731163 -0.043688055 0.032194644 0.035012983 -0.012940988 0.052633256 0.045538068
-0.025365554 -0.015318397 -0.03593012 -0.00707452 -0.020986717 -0.01541236 -0.026558079 -0.0005083792
-0.051265173 0.052853823 0.039905205 0.016149104 0.016236022 -0.022430833 -0.0025241673 0.016982123
0.043980762 -0.028894018 0.038137518 -0.05181487 0.05049216 -0.0038443469 -0.0063403286 0.042332366
-0.057283234 -0.052757606 -0.052697364 -0.0058612153 -0.01091918 -0.051928177 0.041323036 -0.04833871
-0.0499653 -0.018057592 0.033657737 0.03942793 -0.034891047 0.040047824 -0.04305642 -0.0050106496
0.022874773 0.026706852 -0.0194561 0.0015237778 0.033621937 0.017330125 0.038844638 -0.0133779235
-0.05552724 -0.005194366 -0.024072729 -0.04929778 -0.009949904 -0.03741032 -0.03784187 -0.025079481
-0.045390833 0.025906019 0.052817017 -0.036187835 0.04631249 0.05064272 0.009409189 0.037969857
-0.0071832426 -0.032347772 0.05309844 0.017703041 0.05268579 -0.011344846 -0.057001945 -0.017199498
-0.031225977 0.032019556 -0.0049302466 -0.048238214 -0.00029512495 -0.038533837 -0.04147288 -0.033215977
0.044118322 -0.029734556 -0.02349313 0.0022989735 -0.051120955 0.0075155124 -0.0059979446 0.04174529
0.025653422 0.014812544 -0.01539354 0.0017660782 -0.019200392 -0.020247012 0.035299145 -0.04152351
0.041033648 -0.05620959 0.04708238 -0.05296756 0.00042051822 0.013154171 0.03431098 0.05725266
-0.038386777 -0.055525217 -0.040397458 -0.025166772 -0.0040111355 0.016130798 0.032345295 0.002778381
0.047576465 -0.05297082 -0.0028353967 -0.04816194 0.021689259 -0.014863744 0.050634228 0.04130865
-0.01045119 0.0015311874 -0.044024527 0.007770486 -0.017295778 0.040285364 0.030642278 -0.0009620972
0.05179275 0.043066867 -0.03123675 0.055205353 -0.034294453 -0.014863551 0.03727205 0.03651142
0.013641372 0.056492716 0.04086534 0.020376615 0.046082057 0.0034085028 0.012019515 -0.036805104
0.022438511 -0.025940783 0.040148757 -0.014030673 -0.019223206 -0.04295375 -0.011000369 0.006002441
00000000: 5c78 923c fad8 1d3d 8a01 483d 3c17 aabc
00000010: cc97 3cbc bc5f e73c 6626 a2bc 380b 85bc
00000020: 12b0 25bd 8585 63bd 408d 45bc c023 6cba
00000030: 9440 843c 4eab 473d 6ef9 4e3d 0c54 273d
00000040: 807a 003d ecb4 593d 1055 e6bb bb7e f4bc
00000050: 4cd8 e3bc ce10 46bd 48e1 9bbc 1c38 f83c
00000060: 9a82 d0bc dc0b 2dbd 18eb 763c e46a 523d
00000070: 5864 5dbc 89c0 64bd 5254 46bd 707b 3c3c
00000080: f08f ad3b 00ac 083c c9fc 36bd 2022 a03a
00000090: 20ae 23bc 50d1 eb3c f204 5f3d 8489 0d3d
000000a0: ea8b 153d 5077 46bd 00fd 43bb 8694 1cbd
000000b0: f341 51bd 7480 493d f003 133d c470 abbc
000000c0: 204c df3a ec20 6bbd 40c8 59ba a4c7 36bc
000000d0: f480 d13c 2756 ffbc 164c bbbc a6c5 b1bc
000000e0: e2f9 5ebd ba2a eebc e665 023d a2e2 cabc
000000f0: d877 eabc 68f3 8a3c 7c3e 393d dbc6 3abd
00000100: f072 6cbc 8085 e2ba 0b65 4abd e2ca 67bd
00000110: ca76 4d3d 39ec 61bd 48cd 5dbd d800 47bc
00000120: 60f0 1e3c 8058 98bc 90b6 4a3c b887 e33c
00000130: cc04 66bc 1a15 1dbd 95fb 5dbd 8829 f8bc
00000140: 3b9d 37bd 2499 403d ed6b 66bd f44c 663d
00000150: b8c2 93bc 303a aa3c 9a0a 6b3d 1bce 63bd
00000160: 10ec b23b d83f 24bd 9a80 4b3d cc3a 6c3d
00000170: c00b 85bc 809e b53a 1453 b93c 667d 363d
00000180: 42fc 3a3d d7c9 41bd 3ff2 32bd 88de 033d
00000190: c669 0f3d 7006 54bc f895 573d 2086 3a3d
000001a0: 6ccb cfbc 04fa 7abc 762b 13bd 60d1 e7bb
000001b0: 56ec abbc 2084 7cbc 5490 d9bc c044 05ba
000001c0: 6efb 51bd 407d 583d a473 233d 204b 843c
000001d0: 6801 853c dec0 b7bc 806c 25bb 181e 8b3c
000001e0: 2c25 343d 26b3 ecbc 1636 1c3d d43b 54bd
000001f0: ded0 4e3d 70f1 7bbb 88c2 cfbb b464 2d3d
00000200: d3a1 6abd 5c18 58bd 31d9 57bd 700f c0bb
00000210: 5ce6 32bc a4b2 54bd 5842 293d d0fe 45bd
00000220: 6aa8 4cbd 84ed 93bc b2dc 093d 2e7f 213d
00000230: eae9 0ebd 3009 243d ee5b 30bd 6030 a4bb
00000240: e063 bb3c 54c8 da3c 6662 9fbc 80b9 c73a
00000250: 28b7 093d e8f7 8d3c 8e1b 1f3d 142f 5bbc
00000260: 8870 63bd 8035 aabb 2c34 c5bc 78ec 49bd
00000270: ec04 23bc 903b 19bd 1400 1bbd 7c73 cdbc
00000280: bdeb 39bd dc38 d43c a856 583d b239 14bd
00000290: 2ab2 3d3d be6e 4f3d 0029 1a3c 4886 1b3d
000002a0: 6861 ebbb 197f 04bd c07d 593d f805 913c
000002b0: 0ecd 573d bcdf 39bc df7a 69bd f6e5 8cbc
000002c0: 9fcd ffbc f026 033d e88d a1bb 6f95 45bd
000002d0: 00bb 9ab9 a8d5 1dbd 77df 29bd 7a0d 08bd
000002e0: 6ab5 343d e295 f3bc aa74 c0bc 60aa 163b
000002f0: 3564 51bd b044 f63b 688a c4bb 1cfd 2a3d
00000300: 2027 d23c 50b0 723c 3035 7cbc c07b e73a
00000310: 244a 9dbc 10dd a5bc d695 103d 8e14 2abd
00000320: e612 283d 073c 66bd 74d9 403d 83f4 58bd
00000330: 0079 dc39 9884 573c ac89 0c3d c481 6a3d
00000340: 743b 1dbd 696e 63bd ce77 25bd 8c2a cebc
00000350: d86f 83bb bc24 843c 807c 043d 8015 363b
00000360: 8adf 423d eef7 58bd 10d2 39bb 7445 45bd
00000370: acad b13c 1087 73bc d665 4f3d 4233 293d
00000380: 783b 2bbc 20b2 c83a 1053 34bd 909f fe3b
00000390: e0af 8dbc 4402 253d 8405 fb3c 4035 7cba
000003a0: a224 543d e266 303d 36e4 ffbc 021f 623d
000003b0: 5778 0cbd 4086 73bc 94aa 183d 008d 153d
000003c0: 1080 5f3c e864 673d 6a62 273d dcec a63c
000003d0: 8ac0 3c3d 3061 5f3b 80ed 443c f3c0 16bd
000003e0: f8d0 b73c c481 d4bc 0673 243d e8e0 65bc
000003f0: fc79 9dbc 45f0 2fbd e43a 34bc 20b0 c43b

fc2.bias f4 [300]
-0.0148232095 -0.0019370189 0.004734138 0.00870149 0.005448986 -0.023820806 -0.007391682 -0.017927818
0.037501913 0.009580735 0.03695801 -0.04104675 0.04678566 -0.03270736 0.044690877 -0.017454129
0.033064533 -0.057705667 -0.013741165 0.004703026 -0.035352122 -0.036921885 0.022459632 0.11217833
-0.017735489 0.020144455 -0.032685786 0.0024546685 -0.025896246 0.03380773 -0.033417784 0.031783108
-0.004493534 0.0052017607 -0.037300784 -0.05188431 0.041319434 -0.00097156316 -0.004395668 -0.037597455
-0.02005635 -0.05371944 -0.04539742 -0.013455934 0.013691548 0.0061514643 -0.0350678 0.018657617
-0.020587428 -0.032645095 -0.027756792 0.039445564 -0.016991105 0.034638923 -0.030162247 -0.039992355
-0.013009369 0.03281225 -0.019801682 0.045875177 0.021766685 -0.057410322 0.03465789 -0.009976488
-0.007138324 -0.054665647 -0.027230635 0.025993416 0.083423994 -0.031180467 0.074132055 0.0072379336
0.0147760855 0.036073666 -0.050536316 0.005431409 -0.021938356 0.008916523 -0.037054647 0.007747537
0.015119892 0.014484757 0.03610799 -0.031594865 -0.0064600836 -0.008208297 0.027710747 -0.023414146
0.0014681742 0.017484399 0.03528054 0.026984278 0.0009573458 0.025538908 -0.043788373 0.033802122
-0.041632496 3.7416496e-05 -0.03392741 0.0031352825 0.029719802 -0.0024052993 -0.04376405 0.004030691
-0.018594306 0.020085491 -0.028006976 0.015265495 -0.037467737 -0.038993377 -0.007979065 -0.012969682
0.028600734 -0.006464894 -0.033556838 0.04477064 -0.039659634 -0.012716364 0.01328579 -0.021199102
0.0055575855 -0.039944876 -0.02405868 -0.038115777 0.022778904 -0.02849915 -0.009679703 0.004532696
0.018187698 0.014992364 0.041216638 -0.021852922 0.037481345 -0.034275945 0.025920853 0.03428674
-0.034153186 0.023741465 0.026391903 -0.04320059 -0.017485537 -0.004303468 -0.049175248 0.009499814
-0.042109646 -0.05190788 0.027808698 -0.02535913 -0.029239034 0.021389494 0.044722673 -0.01878028
-0.049070384 -0.010058817 -0.031002326 0.011521697 0.016902328 -0.013884344 -0.00072952 -0.03585509
0.031181006 0.0030926205 0.03250946 0.03929733 -0.022065077 0.04211434 -0.023845613 -0.008572354
-0.017064976 0.0323818 -0.037473876 -0.0019134884 -0.046034593 -0.008033782 0.03801947 0.036396526
-0.05318871 -0.03439492 0.015321586 0.040281992 -0.00741304 0.06812528 0.01276658 0.03204435
0.045867108 -0.0028108947 0.019941572 0.008158263 -0.049149103 0.039246712 -0.0140831135 0.012785494
-0.033281438 -0.04129669 0.034585714 -0.0070538395 -0.009258012 0.040003743 0.013618462 -0.047031518
-0.015588246 -0.032783955 -0.049581766 0.012947196 -0.034894906 -0.027030809 0.032405324 0.04242171
-0.011135627 0.058783695 -0.054349933 0.020651411 -0.034609012 0.02016782 -0.015544541 0.029444646
-0.038417883 0.042404182 0.008337199 -0.046969548 0.041306715 -0.016830757 -0.013215024 -0.031133557
0.027891822 0.03268645 0.00927806 -0.03524597 -0.042992145 -0.004733723 0.040166162 -0.023080904
-0.011556655 -0.017439388 -0.03644079 0.0011881428 -0.014154879 0.029358907 0.03469021 -0.025727343
-0.028703017 0.038081422 -0.0051893285 -0.041237276 -0.054356076 -0.010615468 -0.039242994 0.009769314
0.018932518 -0.04755531 -0.03532655 -0.02681964 0.029883001 -0.009561233 -0.025797302 -0.006574345
00000000: 0cdd 72bc 92e3 fdba d420 9b3b b290 0e3c
00000010: 688d b23b da23 c3bc ec35 f2bb 5cdd 92bc
00000020: 9b9b 193d 84f8 1c3c 4861 173d a320 28bd
00000030: 52a2 3f3d 27f8 05bd c80d 373d f6fb 8ebc
00000040: ad6e 073d c75c 6cbd a022 61bc d71b 9a3b
00000050: 63cd 10bd 673b 17bd 43fd b73c c1bd e53d
00000060: 044a 91bc fc05 a53c 88e1 05bd 81de 203b
00000070: 5d24 d4bc f979 0a3d 16e1 08bd 012f 023d
00000080: 7f3e 93bb 8873 aa3b b5c8 18bd a484 54bd
00000090: 913e 293d 80b0 7eba 8909 90bb caff 19bd
000000a0: 374d a4bc ea08 5cbd a5f2 39bd 4776 5cbc
000000b0: 8452 603c 3992 c93b 41a3 0fbd dcd7 983c
000000c0: f7a6 a8bc ddb6 05bd 3662 e3bc ac91 213d
000000d0: ee30 8bbc 8be1 0d3d d116 f7bc 06cf 23bd
000000e0: 4025 55bc 2366 063d 2337 a2bc 9ce7 3b3d
000000f0: 0c50 b23c 1627 6bbd 6ff5 0d3d 6c74 23bc
00000100: 9ae8 e9bb 16e9 5fbd c812 dfbc 25f0 d43c
00000110: 33da aa3d 2e6e ffbc 8cd2 973d 302c ed3b
00000120: 6517 723c fbc1 133d 2bff 4ebd f6f9 b13b
00000130: 11b8 b3bc 9c16 123c 9dc6 17bd 0ddf fd3b
00000140: 6cb9 773c 7951 6d3c f9e5 133d 9e69 01bd
00000150: 1caf d3bb 187c 06bc a601 e33c 06cf bfbc
00000160: c06f c03a 713b 8f3c 5482 103d 220e dd3c
00000170: 64f6 7a3a f936 d13c 705b 33bd 1874 0a3d
00000180: d686 2abd a8ef 1c38 78f7 0abd 5079 4d3b
00000190: f176 f33c 3aa2 1dbb ef41 33bd e313 843b
000001a0: 1653 98bc 548a a43c e36e e5bc 201c 7a3c
000001b0: c577 19bd 85b7 1fbd a0ba 02bc ca7e 54bc
000001c0: 164c ea3c 76d7 d3bb e572 09bd 6b61 373d
000001d0: 2472 22bd 4c58 50bc a4ac 593c bda9 adbc
000001e0: 681c b63b 3d9d 23bd b516 c5bc 4a1f 1cbd
000001f0: d39a ba3c 0d77 e9bc 9e97 1ebc 0387 943b
00000200: 5efe 943c 88a2 753c c7d2 283d e604 b3bc
00000210: 0a86 193d ef64 0cbd f857 d43c 4170 0c3d
00000220: 36e4 0bbd 767d c23c d533 d83c 1af3 30bd
00000230: d43d 8fbc 1b04 8dbb fc6b 49bd 1ca5 1b3c
00000240: 2a7b 2cbd 5b9d 54bd 11cf e33c f3bd cfbc
00000250: b386 efbc 0539 af3c 1f2f 373d 1ad9 99bc
00000260: 07fe 48bd bdcd 24bc 97f8 fdbc 80c5 3c3c
00000270: c076 8a3c 297b 63bc 423d 3fba c9dc 12bd
00000280: 4f6f ff3c 90ad 4a3b a428 053d 3df6 203d
00000290: d2c1 b4bc 1680 2c3d e057 c3bc 0f73 0cbc
000002a0: d9cb 8bbc c7a2 043d 357e 19bd 04ce faba
000002b0: c58e 3cbd 20a0 03bc 4eba 1b3d 8614 153d
000002c0: 68dc 59bd b0e1 0cbd 6407 7b3c bbfe 243d
000002d0: 16e9 f2bb 4485 8b3d eb2a 513c f040 033d
000002e0: 26df 3b3d fd36 38bb 825c a33c 3caa 053c
000002f0: 9250 49bd 29c1 203d dcbc 66bc 407a 513c
00000300: 1e52 08bd b826 29bd c0a9 0d3d e523 e7bb
00000310: ebae 17bc f7da 233d f81f 5f3c 1fa4 40bd
00000320: d865 7fbc 7848 06bd 4016 4bbd 7a20 543c
00000330: f6ed 0ebd b76f ddbc 72bb 043d 63c2 2d3d
00000340: 3472 36bc 2cc7 703d 099e 5ebd 262d a93c
00000350: 2ec2 0dbd fc36 a53c 88ae 7ebc e635 f13c
00000360: 125c 1dbd 02b0 2d3d bf98 083c 2463 40bd
00000370: 3b31 293d a8e0 89bc d483 58bc cd0b ffbc
00000380: 647d e43c 3ae2 053d 0103 183c 145e 10bd
00000390: 8818 30bd 591d 9bbb 4685 243d 2a14 bdbc
000003a0: 2058 3dbc 0cdd 8ebc f042 15bd 75bb 9b3a
000003b0: dee9 67bc 1782 f03c 5217 0e3d 26c2 d2bc
000003c0: 9722 ebbc 44fb 1b3d 3e0b aabb 6be8 28bd
000003d0: 7aa4 5ebd 80ec 2dbc 43bd 20bd 790f 203c
000003e0: 5e18 9b3c 5bc9 42bd 93b2 10bd ddb4 dbbc
000003f0: 32cd f43c b8a6 1cbc dd54 d3bc 9a6d d7bb

fc3.weight f4 [1, 300]
0.00048755552 -0.012708134 0.00024865026 -0.009850084 -0.0014535005 0.00038354227 -0.016602065 -0.013002969
-0.02106275 -0.010454586 -0.011658089 -0.014471454 -0.00013233753 -0.0126624415 -0.013096029 -0.0011657545
-0.008749933 -0.05082592 -0.010783656 -0.013524575 -0.008412021 -0.013212365 -0.007139556 0.14102404
-0.010625364 -0.047298446 -0.0011110895 -0.013523004 -0.000323341 -0.012097723 -0.0026183676 -0.046468608
-0.0068673296 -0.014002257 -0.027136784 -0.03670877 -0.0111057395 0.0023694606 -0.009241635 -0.0007333399
-0.011671835 -0.013840026 -0.012345629 -0.0009003502 0.002831034 -0.021004183 -0.019746654 -0.03676386
-0.0019724458 3.4067336e-05 0.0010404439 -0.02158012 -0.015173787 -0.014830713 -0.010326064 -0.0020429576
0.002507689 -0.010586135 -0.01407748 0.00053373544 -0.009190793 -0.09263076 -0.016183924 0.0019111753
-0.013601752 -0.011870879 -0.011759966 -0.018181814 0.054130644 -0.009524353 0.07469973 0.0011116131
-0.00751076 0.0017875568 -0.03660383 -0.015104583 -0.012865125 -0.013547073 -0.012662722 -0.010952013
0.04707173 -0.012421832 0.00066932524 -0.017739128 -0.0010478878 -0.013147132 -0.014631299 0.00036381543
0.0028821724 -0.014509467 -0.011490438 -0.001927826 -0.008979978 -0.010900924 -0.051573675 -0.00863256
7.072487e-05 -0.01914719 -0.0014648063 -0.009142658 -0.061544143 -0.01282622 -0.042104714 -0.016085893
-0.014491825 -0.022698091 -0.0012197102 0.07402261 -0.00041760926 -0.0012684881 0.0020574874 -0.0065710135
-0.0029626512 -0.010699906 -0.0029138152 -0.0029287373 -0.015273643 -0.0069531184 3.6996564e-05 -0.013350491
-0.008995876 -0.020660402 -0.0008370714 -0.0005483751 -0.019991508 0.0025856616 -0.0070880717 -0.03820777
-0.0025214972 -0.01485693 -0.00081947324 -0.00060994003 -0.014659042 -0.011403061 -0.016360523 -0.013516179
-0.010489728 -0.008801545 -0.00065379817 -0.010292545 -0.0014468336 -0.01983113 -0.00040482922 -0.008998567
0.0005188412 -0.013372386 -0.010972364 -0.002879835 -0.0101906685 -0.029491005 -0.00010873494 -8.960934e-05
-0.016892334 -0.008231678 0.0012298082 -0.0019682443 0.05776498 -0.013434471 -0.0111517785 -0.012547062
-0.0115643805 0.0015607696 -0.012782969 -0.0018415386 -0.010746264 -0.010420827 0.0002559023 -0.012978909
-0.012839132 -0.01105149 -0.010307934 0.0013685613 0.0012223865 -0.0009217737 -0.011316321 -0.011886433
-0.044280123 -0.016227923 -0.0012818434 -0.0077631017 -0.016058648 0.054679103 0.00014660455 -0.013221817
-0.042332456 0.0011448705 -0.015777756 -0.0006513917 -0.00042877247 -0.013298349 -0.018428892 -0.014523644
-0.012152116 -0.0016574289 -0.046751224 -0.011344228 -0.016132494 -0.020251285 -0.013115602 2.897051e-05
-0.001732167 0.00058755605 -0.0026390888 -0.007889093 0.0012910427 -0.0014091354 -0.017931921 -0.0015854033
-0.002399803 0.059553124 -0.024008483 -0.008344653 -0.009193164 0.00041831398 -0.010226641 -0.0003829118
0.0009817944 -8.0644924e-05 -0.016312271 -0.022563472 -0.011601475 -0.010297252 -0.0004986925 -0.0097022625
-0.012110759 -0.008366222 -0.011595204 -0.013143734 -0.031074703 -0.0094705615 -0.000559655 -0.015536986
-0.013906183 -0.01414538 -0.0719817 -0.019392721 -0.0014638529 -0.024466861 -0.009615977 -0.007129219
-0.0024864608 -0.010955311 -0.04049033 -0.011419464 -0.0030129217 -0.00036130543 -0.009556345 -0.04753492
-0.01653893 -0.001132057 0.00028644712 -0.01744782 0.06103922 -0.0006932488 0.0016400605 -0.00028862173
00000000: 989e ff39 c735 50bc 465d 8239 3f62 21bc
00000010: 6283 beba 2c16 c939 0e01 88bc 680a 55bc
00000020: ca8b acbc b649 2bbc 9201 3fbc ad19 6dbc
00000030: 16c4 0ab9 2176 4fbc ba90 56bc 3bcc 98ba
00000040: e15b 0fbc d72e 50bd eead 30bc 2e96 5dbc
00000050: 93d2 09bc ad78 58bc f0f2 e9bb 9b68 103e
00000060: 0216 2ebc 04bc 41bd faa1 91ba 978f 5dbc
00000070: 1886 a9b9 8735 46bc eb98 2bbb de55 3ebd
00000080: 5607 e1bb b969 65bc f64d debc ef5b 16bd
00000090: d9f4 35bc f448 1b3b 3a6a 17bc 9c3d 40ba
000000a0: 393b 3fbc 47c1 62bc 5245 4abc 7b05 6cba
000000b0: de88 393b f710 acbc bcc3 a1bc b495 16bd
000000c0: 2644 01bb 86e3 0e38 815f 883a cbc8 b0bc
000000d0: 7a9b 78bc 85fc 72bc a72e 29bc 24e3 05bb
000000e0: 0a58 243b 7871 2dbc 3ba5 66bc 61ea 0b3a
000000f0: fb94 16bc 32b5 bdbd 2694 84bc 6780 fa3a
00000100: e2d9 5ebc 137e 42bc dfac 40bc 07f2 94bc
00000110: 18b8 5d3d 080c 1cbc 2cfc 983d 8cb3 913a
00000120: d21c f6bb 744c ea3a e6ed 15bd 3779 77bc
00000130: 3fc8 52bc 8bf4 5dbc 4e77 4fbc 1270 33bc
00000140: 49ce 403d f184 4bbc a875 2f3a a651 91bc
00000150: 4859 89ba 1167 57bc 1eb8 6fbc 7bbe be39
00000160: d4e2 3c3b 1eb9 6dbc 6442 3cbc 1baf fcba
00000170: c220 13bc ca99 32bc eb3e 53bd 956f 0dbc
00000180: 2052 9438 91da 9cbc befe bfba 16cb 15bc
00000190: b615 7cbd 1125 52bc fe75 2cbd 90c6 83bc
000001a0: 1f6f 6dbc 59f1 b9bc afde 9fba 2b99 973d
000001b0: 91f2 dab9 6643 a6ba e9d6 063b a851 d7bb
000001c0: 0a29 42bb a94e 2fbc b5f5 3ebb 0ff0 3fbb
000001d0: 4d3e 7abc fcd6 e3bb c22c 1b38 05bc 5abc
000001e0: 7063 13bc 0140 a9bc e96e 5bba d4c0 0fba
000001f0: 3bc5 a3bc 3474 293b 0e43 e8bb c07f 1cbd
00000200: b43f 25bb 7b6a 73bc ebd1 56ba 62e4 1fba
00000210: 7a2c 70bc e8d3 3abc 8106 86bc f772 5dbc
00000220: 1cdd 2bbc 5b34 10bc a763 2bba 10a2 28bc
00000230: aea3 bdba e574 a2bc 423f d4b9 ba6e 13bc
00000240: d802 083a da17 5bbc 6ec5 33bc 9dbb 3cbb
00000250: c3f6 26bc 1f97 f1bc a008 e4b8 a6ec bbb8
00000260: cb61 8abc 29de 06bc 8431 a13a a9fd 00bb
00000270: f99a 6c3d 411c 5cbc f3b5 36bc 3192 4dbc
00000280: 8778 3dbc bd92 cc3a a86f 51bc c85f f1ba
00000290: 1911 30bc 1ebc 2abc a02a 8639 7da5 54bc
000002a0: 395b 52bc 4f11 35bc 9ce2 28bc 4c61 b33a
000002b0: 7c38 a03a 30a3 71ba 1768 39bc 50bf 42bc
000002c0: 135f 35bd 6cf0 84bc 8703 a8ba 9e61 febb
000002d0: 6d8d 83bc 32f7 5f3d dcb9 1939 52a0 58bc
000002e0: cc64 2dbd 7b0f 963a 5a40 81bc 28c2 2aba
000002f0: decc e0b9 52e1 59bc 30f8 96bc 94f4 6dbc
00000300: ab19 47bc 163e d9ba 367e 3fbd 24dd 39bc
00000310: 4b28 84bc 06e6 a5bc d2e2 56bc b205 f337
00000320: e109 e3ba 3806 1a3a 90f4 2cbb 4141 01bc
00000330: 3438 a93a bdb2 b8ba f7e5 92bc 4fcd cfba
00000340: 0346 1dbb faed 733d 70ad c4bc 03b8 08bc
00000350: ed9e 16bc 2751 db39 a48d 27bc 8dc1 c8b9
00000360: 8eaf 803a ea1f a9b8 50a1 85bc 08d7 b8bc
00000370: 1d14 3ebc ceb5 28bc b0ba 02ba 3df6 1ebc
00000380: 346c 46bc 7a12 09bc cff9 3dbc d158 57bc
00000390: 6090 febc 6a2a 1bbc d0b5 12ba d88e 7ebc
000003a0: c2d6 63bc 06c2 67bc 246b 93bd 7cdd 9ebc
000003b0: c1de bfba ba6e c8bc 558c 1dbc 399c e9bb
000003c0: e4f3 22bb e87d 33bc 30d9 25bd b418 3bbc
000003d0: 7074 45bb 986d bdb9 3792 1cbc fab3 42bd
000003e0: a67c 87bc 8861 94ba 482e 9639 bbee 8ebc
000003f0: 4304 7a3d 24bb 35ba 4cf7 d63a 2752 97b9
